01_Policy_gradients/policy_weights.pth (torch, 3430 bytes, 3 tensors)

net.0.weight f4 [42, 2]
0	0x3e488661	0.19582511
1	0xc0a0456f	-5.008476
2	0xbdec5696	-0.115399525
3	0x3e23f112	0.1600993
4	0xbe0fdae0	-0.14048338
5	0xc083a1e4	-4.113512
6	0xbf31b077	-0.6940989
7	0x408f4085	4.476626
8	0x3e28adb8	0.16472518
9	0x3cfab462	0.030603591
10	0xbf155647	-0.58334774
11	0x408ff0b5	4.498133
12	0x3f8c4f47	1.0961694
13	0x400b779f	2.179176
14	0xbf54a504	-0.83064294
15	0x407e963c	3.9779196
16	0xbe5280b7	-0.20556913
17	0x3b826d05	0.0039802813
18	0xbe27e02c	-0.16394109
19	0x409fcf6a	4.994069
20	0x3fb33c02	1.4002688
21	0x3e81ee7c	0.25377262
22	0xbe1a5710	-0.15072274
23	0xc074d51b	-3.825507
24	0x3f34b5a5	0.7058967
25	0x3f02e7a5	0.5113471
26	0x3e0b6944	0.13614374
27	0xbf04d56a	-0.51888144
28	0xbe712089	-0.23547567
29	0xbf45347d	-0.77033216
30	0x3efdaebf	0.49547383
31	0x409c93e6	4.893054
32	0xbeb4dfd2	-0.3532701
33	0x40a420b1	5.1289907
34	0x3ec6a98e	0.38801235
35	0xbd6df9c0	-0.05809951
36	0x3e178a28	0.14798796
37	0xc09ca0d6	-4.8946333
38	0xbe652035	-0.22375567
39	0xbf553821	-0.8328877
40	0xbeec64ff	-0.46170804
41	0x3ea3668e	0.3191418
42	0xbdc54666	-0.09632568
43	0x40035fde	2.0527263
44	0xbe638ce4	-0.22221714
45	0x40987797	4.7645984
46	0x3fa135a7	1.2594498
47	0x3fe140f1	1.7597944
48	0x3e97839a	0.29592592
49	0x3ec19f8e	0.37817043
50	0x3e0c0f54	0.13677722
51	0x3ec69d2a	0.38791782
52	0xbd61f370	-0.0551638
53	0xbd216950	-0.039407074
54	0x3e8d2750	0.27569056
55	0xbd496560	-0.049168944
56	0xbf86eb7d	-1.0540615
57	0x405af1e4	3.4210138
58	0x3f104e35	0.56369334
59	0x408550c3	4.1661086
60	0xbd075dca	-0.03304843
61	0x40957aa5	4.6712213
62	0xbde8f9f3	-0.11375799
63	0x4087b4bc	4.2408123
64	0xbf5e5e17	-0.8686232
65	0x4080ab86	4.020938
66	0x3e1bcf90	0.15215898
67	0xbe2b2910	-0.16714883
68	0xbe3460cc	-0.1761505
69	0x3d2bb161	0.04191721
70	0xbe8c819f	-0.27442643
71	0x3f29a28b	0.66263646
72	0x3fb4eeb8	1.4135351
73	0x40205cf3	2.5056732
74	0xbe589277	-0.21149622
75	0x40a460c4	5.136812
76	0x3f03e279	0.51517445
77	0x4099b5a9	4.8034253
78	0x3e30989c	0.17245716
79	0x3ec6134f	0.38686606
80	0xbe1a0d27	-0.1504408
81	0xc06222cd	-3.533374
82	0x3fa29b14	1.2703576
83	0x4045cf57	3.09078

net.0.bias f4 [42]
0	0x3eb41fe9	0.35180596
1	0xbe5961c4	-0.21228701
2	0x3ec350b4	0.3814751
3	0xbdbd0961	-0.092303045
4	0x3da1f945	0.079088725
5	0xbe081a90	-0.13291383
6	0x3e241b50	0.16026044
7	0xbe57b007	-0.21063243
8	0xbe9ff69e	-0.3124284
9	0x3d519169	0.051164065
10	0x3e2827a7	0.16421376
11	0x3eb55288	0.3541453
12	0xbec1fb80	-0.37887192
13	0xbdaa1e50	-0.08306563
14	0xbeaa3fa4	-0.3325168
15	0x3e6742a3	0.22584014
16	0xbd74b683	-0.05974437
17	0xbe6c26bc	-0.23061651
18	0x3ea4ef2e	0.3221373
19	0xbe20cf50	-0.15704083
20	0xbf0f5556	-0.5598959
21	0x3e1ee9f1	0.15518929
22	0xbcaec1b6	-0.021332603
23	0x3e23f151	0.16010024
24	0xbe7e9b50	-0.24863935
25	0xbe77bb14	-0.24192458
26	0xbec68aae	-0.3877768
27	0xbf18c76b	-0.5967929
28	0xbe86e689	-0.2634776
29	0x3e9d014c	0.30665052
30	0x3e4f84c4	0.2026549
31	0x3e0a0f7e	0.13482472
32	0xbe6160f3	-0.2200964
33	0xbe92336d	-0.2855486
34	0xbe943dad	-0.28953305
35	0xbee5065b	-0.4473141
36	0x3e41ab07	0.18912898
37	0x3bc1555f	0.0059000696
38	0x3eaec699	0.34135893
39	0xbe043e5c	-0.12914413
40	0x3e89008d	0.26758233
41	0x3e036698	0.12832105

net.2.weight f4 [1, 42]
0	0xbfaebee6	-1.3652008
1	0xbd7dbd77	-0.061948266
2	0xbec83540	-0.39103127
3	0x3f0f3b91	0.55950266
4	0xbbb606ab	-0.005554994
5	0x3f4f2781	0.80919653
6	0x3f751908	0.9574132
7	0x3f885db6	1.0653598
8	0xbcdd5d8f	-0.027022151
9	0x3fe789d6	1.8088939
10	0x3f14cea7	0.58127826
11	0xbea6e6a1	-0.3259783
12	0xb9818200	-0.00024701655
13	0xbd7011fc	-0.0586109
14	0x3c1d7241	0.00960976
15	0x3f4b8577	0.79500526
16	0x3fb75466	1.4322631
17	0x3dc52ffa	0.096282914
18	0xbfbfaaa8	-1.4973955
19	0x3d11afa4	0.035567895
20	0x3ada0820	0.0016634502
21	0x3df3f9cb	0.119128786
22	0x3fe12ed0	1.7592411
23	0x3f173b1c	0.5907457
24	0x3dc80bfa	0.09767909
25	0x3cb2eb98	0.021840855
26	0xbdd0e88d	-0.102006055
27	0x3beb5f40	0.0071829855
28	0x3f5c20a9	0.85987335
29	0x3ec2d941	0.38056377
30	0x3efc4167	0.49268648
31	0x3f524a29	0.8214441
32	0x3f72c077	0.9482493
33	0x3de50746	0.11183028
34	0xbd095834	-0.033531383
35	0xbcc3f8d9	-0.02392237
36	0x3f76947f	0.9632034
37	0x3fcfeccc	1.624414
38	0x3f40027b	0.75003785
39	0x3d3a84e9	0.04553691
40	0xbe9d8db7	-0.30772182
41	0x3f6f92eb	0.93583554
